backend/models/Hey_Groovi.tflite (tflite, 206992 bytes, 9 tensors)

arith.constant f4 [1, 32]
000000 62 0c 9b ba 73 3a 21 3e 2a f4 f8 3d b8 b2 a3 3d
       -0.0011829252 0.15744953 0.121559456 0.07993072
000010 96 2e 95 be 30 18 98 3d 3d 68 e9 bc ac d5 a5 be
       -0.29137105 0.074264884 -0.028492087 -0.3238958
000020 b1 b3 fd 3d bf 87 31 3d 48 7a 21 3e 6e d8 41 bc
       0.12387789 0.04334235 0.15769303 -0.011831386
000030 cd 31 42 3e 52 77 89 bc be 85 72 3e 5f eb b3 be
       0.1896431 -0.01678053 0.23683831 -0.3514051
000040 65 14 25 3e 57 a6 e2 3d 72 18 80 3e b8 3f 24 3d
       0.16121061 0.11066883 0.2501865 0.04009983
000050 04 28 be be e2 81 4d bd e7 55 54 3d b9 b1 8d be
       -0.37139904 -0.050172694 0.051839735 -0.27674654
000060 fb e0 c1 be 99 9c 93 3c 4c aa 48 3d 68 86 b6 be
       -0.3786696 0.018019008 0.048990533 -0.3564942
000070 b7 0f c1 be d8 1d 58 3e 0c c3 29 bc 21 96 bb be
       -0.37707302 0.21105134 -0.010361444 -0.36637977

arith.constant1 f4 [32, 32]
000000 7d 05 fb bd 11 d5 1d be 6a 7e 95 bd 6d 54 bd bc
       -0.12256906 -0.1541331 -0.07299502 -0.023111546
000010 10 62 08 bc 36 d1 b2 bd 8c ae 08 3e 0b 11 da 3d
       -0.008324161 -0.0873131 0.13347834 0.10647782
000020 5d 4c da bd ee 3a 8f bd a3 73 dc 3d 65 b5 e0 3d
       -0.106590964 -0.06993662 0.107642435 0.10972098
000030 ef 0b 83 bd a8 74 ed bc 25 e1 f6 3d 89 6d 51 bd
       -0.063987605 -0.02898629 0.12054662 -0.05112985
000040 8e 7d fd 3b e3 d1 06 3e a2 03 4e bd a8 87 49 3d
       0.0077359146 0.13166003 -0.050296433 0.049201638
000050 a2 05 ca 3d 38 c5 ae 3d cc ea a9 3d 1a b4 3c bd
       0.098643556 0.0853371 0.08296737 -0.046070196
000060 14 17 13 3e cb 7c 03 3e 1c 76 49 bd fd df e6 3c
       0.14364272 0.12840573 -0.049184904 0.028182978
000070 b3 9a cf bc 40 c5 6a bd 7d b1 7b 3d c8 a4 27 3d
       -0.025342321 -0.05731702 0.061448563 0.040928632
000080 5e e9 7c 3d 57 b0 b9 3d 74 ad c5 bc 06 a0 7c bd
       0.061745994 0.09066837 -0.02413056 -0.061676048
000090 6b 86 c3 bd 6d fe 94 bd 42 5a 86 bd 76 8b 18 3e
       -0.095471226 -0.0727509 -0.06560184 0.1489695
0000a0 93 6d 23 3c f6 c4 a8 bc 5c 11 41 be fa ac f6 bd
       0.009974855 -0.02060173 -0.18854278 -0.120447114
0000b0 62 66 61 bd 22 b3 94 3c fc 0f 1a be 45 15 cd bd
       -0.05502928 0.018151823 -0.1504516 -0.100138225
0000c0 f0 46 5e 3e 07 40 13 3e 40 f9 b2 3c 6b 51 02 be
       0.21706748 0.14379893 0.021847367 -0.12726371
0000d0 8c 82 00 3e aa c2 61 bd d6 b1 be bd 46 84 e0 3c
       0.125498 -0.055117287 -0.09311263 0.027406823
0000e0 56 a7 b0 bc e5 99 45 3e 26 f4 c2 bd 55 d1 96 bd
       -0.021564167 0.19296987 -0.09519224 -0.07364146
0000f0 13 ad 90 bd 49 e1 63 3e bb 8b 5f bd e1 e1 60 3d
       -0.07064261 0.22253908 -0.054576617 0.054902915
000100 7c 1e 18 3d c1 67 c9 bc 1e af 01 be e6 1c a4 3d
       0.037138447 -0.024585607 -0.12664458 0.080133244
000110 c1 f4 6a 3d 35 59 3b be b9 b5 01 3b 56 5c d6 3c
       0.05736232 -0.18295749 0.0019792153 0.026167076
000120 8e 4d ed bd 1b 19 39 3d e1 0d 90 3d c6 33 4b bd
       -0.11587058 0.045189958 0.07033897 -0.049609922
000130 1d 95 13 3e b4 d9 56 3d 13 f4 0b 3e 71 eb 9d bd
       0.14412351 0.05245371 0.13667326 -0.077109225
000140 1e d2 16 bd 6d dc 29 3d e0 6e 29 3c 5e 42 0e 3e
       -0.036821477 0.04146998 0.010341376 0.13892505
000150 d1 d3 d8 bd 39 76 fa 3b 08 92 9b 3c ca ef b3 bd
       -0.10587276 0.007643488 0.018990532 -0.087859705
000160 35 52 10 3e 5a f1 02 3e 19 95 fa 3c 03 2c 0e be
       0.1409386 0.12787381 0.030588673 -0.13883977
000170 3c d5 69 3d ac e8 8e 3d f0 89 7d bd a0 b1 98 3c
       0.05708812 0.069779724 -0.061899126 0.018639386
000180 c9 71 ef bd 24 54 50 3d 58 6d 98 bd 6b c1 07 3e
       -0.11691625 0.050861493 -0.07442731 0.13257377
000190 70 2b 3b 3d 78 80 e5 3d 22 5e 2f 3e 09 48 ef 3d
       0.045695722 0.11206144 0.17125753 0.116836615
0001a0 0c 9c bc bd 39 e3 5e 3d 72 10 02 3d a9 7e b5 3d
       -0.09209451 0.054415915 0.031753965 0.08862049
0001b0 1e 7c da 3d 49 3f f3 bc 77 73 82 bd 0a 22 d4 bd
       0.10668205 -0.029693263 -0.063696794 -0.10358055
0001c0 93 64 d1 bc 2e 59 11 3e 91 18 0d 3e b1 7f 9c bc
       -0.025560653 0.14194176 0.13778903 -0.019103857
0001d0 81 de 03 bd 36 b9 1c 3e 08 13 7e bd 39 15 af 3c
       -0.032194618 0.15305027 -0.06202987 0.021372424
0001e0 86 c3 df bd 36 da 77 3d 2b 8c d1 3d 13 82 f0 bc
       -0.10925965 0.060510837 0.10231813 -0.0293589
0001f0 fc c7 19 bc 32 bc 21 be 8b 21 80 bd 69 f9 26 be
       -0.009386059 -0.15794447 -0.06256398 -0.1630608
000200 76 ae 52 3d 04 01 b5 3d 5e b8 15 3e 94 b6 fa 3d
       0.05143591 0.08838084 0.14621112 0.12241855
000210 fd c4 af bb 59 5c 45 bc 3f 81 7b bc 6b 1b 58 bc
       -0.005364059 -0.012045943 -0.015350639 -0.013190131
000220 32 44 f3 3d b5 3f 5f bd 04 59 a2 3d 38 5d 9f 3d
       0.118782416 -0.054504115 0.07927135 0.07781452
000230 c6 82 ab 3d aa 55 e0 bd fd 69 39 3e 67 57 06 3e
       0.083745524 -0.10953839 0.18106838 0.13119279
000240 26 40 39 be 08 89 4c 3d 1b dd e3 3c db 8c a5 bd
       -0.18090877 0.04993537 0.027815392 -0.08083507
000250 d8 61 1f be ca 59 85 bd 2c fa 17 3e ef 66 20 be
       -0.15564668 -0.065112665 0.14841527 -0.15664266
000260 67 b5 00 be 24 9f ab 3d 18 07 fd 3c 11 55 f5 3d
       -0.125692 0.08379963 0.030887172 0.11979116
000270 2a 35 a3 3d e8 26 5c 3b c2 13 8d bd 5e 27 d6 3d
       0.079691246 0.0033592526 -0.06888534 0.104567274
000280 33 da 5c bd b6 1a 02 be 94 e3 09 be 29 a8 7f bd
       -0.05391903 -0.12705502 -0.1346572 -0.06241623
000290 80 e8 a1 bd 88 73 fd 3d 82 d8 89 3d 5f 90 31 3e
       -0.07905674 0.123755515 0.06730749 0.1734023
0002a0 55 5a a5 3c d2 9c 3c 3d 6c c2 0b 3e 26 0b 4d bd
       0.020184675 0.046047993 0.13648385 -0.05005946
0002b0 f4 c5 39 3d f5 06 e2 bd b7 3c 52 3d 6c 01 75 3d
       0.0453548 -0.11036483 0.051327433 0.05981581
0002c0 f6 fa 0f bd d4 ec 8c bd dc 55 0a be c2 91 f4 bd
       -0.035151444 -0.06881109 -0.13509315 -0.119418636
0002d0 31 1c 81 3c 52 9f e0 3d 2f c8 20 3e d3 91 fb bd
       0.015760513 0.10967888 0.15701364 -0.12283673
0002e0 fe de 08 be 33 8a 9e 3d 56 d3 1d 3d 66 14 ea bd
       -0.13366315 0.07741203 0.038531624 -0.11429672
0002f0 5b f1 28 3e 06 99 2f be 8b e9 26 bd cd 4a 17 3e
       0.1649832 -0.17148218 -0.040750068 0.14774628
000300 a5 81 b6 3d 2d 80 00 3e 63 5a 0b 3e 13 09 f5 3d
       0.089114465 0.12548895 0.13608699 0.119646214
000310 be 63 1f 3d 89 b9 02 be 00 c3 04 be b1 cd 57 3c
       0.03891348 -0.12766089 -0.12965012 0.013171599
000320 80 6d 1a 3d ab 1b fd bd c6 8d 54 3b 39 23 18 3c
       0.037702084 -0.12358793 0.0032433136 0.0092857415
000330 ae 9a a0 3c ae 0c 15 3e 4b 5f 90 3d ef a5 fd bc
       0.019605007 0.14555618 0.07049426 -0.030962912
000340 7a fc b8 3c ea 9e 73 bd 95 d5 c0 3d 93 a0 73 bd
       0.022581328 -0.059477724 0.094157375 -0.059479307
000350 70 6f c9 bd 6f 72 0d bc 2e 2c a8 3d a2 4b 00 be
       -0.09835708 -0.00863324 0.082115516 -0.12528852
000360 c5 b0 05 3e 3d 90 be bd 86 c4 f1 bd a4 f8 5f bd
       0.13055713 -0.09304855 -0.11805062 -0.05468048
000370 84 53 18 3e 75 15 c7 bd cf 4b c4 bd ea fb bc bd
       0.14875609 -0.097208895 -0.09584772 -0.09227736
000380 4d de 2f be 19 6b 48 bd 75 3a 06 be 79 f2 a4 3d
       -0.17174645 -0.04893026 -0.13108237 0.080540605
000390 12 0f 2b 3e d3 88 91 3c 20 33 a7 3c d0 af 80 3d
       0.16704968 0.017765438 0.02041012 0.062835336
0003a0 53 a5 7d bc eb 33 8b 3d 72 f2 ca 3d 21 91 31 3d
       -0.015481311 0.06797012 0.09909524 0.043351296
0003b0 bd 75 0a 3d 7a 37 d1 3d a3 03 fa 3d 93 42 16 3e
       0.03380369 0.102156594 0.12207725 0.14673834
0003c0 ae 5e 18 be 67 24 e4 bd 5a c0 07 3e fe 30 b7 bc
       -0.14879867 -0.11139756 0.1325697 -0.022362228
0003d0 9c 40 c9 bc 42 89 2c 3e 3b ff 27 be 3b 08 14 be
       -0.024566941 0.16849235 -0.16405956 -0.14456265
0003e0 4a 90 c3 3d 2e ad b0 bd 38 75 8f bd a5 bb 4c 3d
       0.09549005 -0.086267814 -0.070047796 0.04998364
0003f0 29 ba bd 3d 3b d5 be bd b1 78 76 bc e9 52 e1 3c
       0.09264023 -0.09318014 -0.0150434235 0.027505355

arith.constant2 f4 [32, 1536]
000000 b5 54 a6 bc ab 7c 15 ba 40 ed b8 bb 22 08 03 bd
       -0.020304063 -0.0005702476 -0.005643517 -0.031990178
000010 ca bc 7e bc aa 07 b9 bc c8 58 c0 3b 6a e6 a5 3a
       -0.0155479405 -0.022586662 0.0058699585 0.001265717
000020 d1 1b 6b b8 d7 3b d9 3c c4 59 c0 3b 25 bf 85 3c
       -5.6054272e-05 0.026517792 0.005870076 0.016326496
000030 e9 a1 a1 bc 82 e8 69 bb e0 88 a2 ba 79 cf 4a 39
       -0.019730525 -0.0035691564 -0.0012400411 0.00019341511
000040 01 43 f9 bb 0a 85 fd ba 42 80 07 bc e3 46 b6 bc
       -0.0076068644 -0.0019342017 -0.008270325 -0.022250598
000050 46 0d 9c bc 7e d5 f1 3b 00 90 a4 3b 3a 66 00 3d
       -0.019049298 0.0073801866 0.005022049 0.03134749
000060 09 16 80 bc cc 00 19 3c 15 0b 5f 3c 6f 76 59 3c
       -0.015635507 0.009338569 0.013613482 0.013272866
000070 ec ea 7e 3c af 3f 41 3a 9e af 73 3a 01 af bc bc
       0.015558939 0.00073718553 0.00092958834 -0.023032667
000080 1c de 8d 3b af fc 39 bb d5 40 39 bc 28 5d fd 3b
       0.004329456 -0.002837937 -0.011306961 0.0077320524
000090 6d ae c4 bc b6 20 8b bc 56 14 8b 3c 23 92 c4 3c
       -0.024008954 -0.016983371 0.01697747 0.023995465
0000a0 3c 3e 0e bd 56 f1 35 bc 74 ef be bc eb f9 b6 3c
       -0.03472732 -0.011104902 -0.02330754 0.022335967
0000b0 66 1d ec 3b 19 1c 5f 3c 11 b9 69 3c 0a 64 90 3c
       0.007205653 0.013617539 0.014265315 0.017625827
0000c0 17 7c 6e 39 49 69 0c 3d e2 0e c9 3c 95 20 be 3c
       0.00022743676 0.034280095 0.02454323 0.023208896
0000d0 ba fe 40 3c 7e d0 a4 3c 1f 07 8c 3b a4 7c 4f 3b
       0.011779482 0.020118948 0.00427331 0.0031659985
0000e0 66 5d 2c 3b 3b 9a 3a 3c e9 74 9e 3c b6 c5 d4 bc
       0.0026300787 0.0113893105 0.019342856 -0.025973182
0000f0 0e bb 37 bc 75 6b 1f bc d6 9a bb 3c b2 29 67 3c
       -0.011214031 -0.00973021 0.02290098 0.014109062
000100 17 8a df 3a cc 2b 8a 3c 14 92 40 3d 97 24 56 bc
       0.0017054704 0.016866587 0.04701431 -0.013070247
000110 71 48 86 3c 0d a5 d0 3b ac 57 be 3c 4b 83 a5 bc
       0.016391965 0.006367332 0.023235165 -0.020204207
000120 e0 72 e0 3b f1 3f ba 3c 8a f4 33 3c 6a a0 5c 3c
       0.0068496317 0.022735568 0.010983596 0.01346598
000130 84 38 0a 3d 0f 23 9d 3a d2 b2 57 3c 00 e4 ea 3b
       0.033745304 0.0011988598 0.013165193 0.007168293
000140 05 ae 53 3c fb 4a 8e bc e1 62 59 3c a3 6f d5 3c
       0.012919907 -0.017369738 0.0132682035 0.02605421
000150 80 14 d1 39 3f 8b 4d bc 7c d1 63 3b ef d1 38 3c
       0.0003987886 -0.012545406 0.0034762314 0.011280521
000160 47 35 e5 3c 43 aa 98 3b cb 3a 78 3a 1a c7 c4 3c
       0.027979506 0.0046589687 0.000946921 0.02402072
000170 d4 90 2e ba c5 ae b2 bc 25 79 46 3a bc f2 9a bc
       -0.00066591543 -0.021811852 0.00075711525 -0.018914573
000180 d6 f0 9a 3c 6f be 73 3c 65 3b 47 bb dd 4d 75 bc
       0.018913668 0.014876946 -0.0030400392 -0.014972177
000190 aa 83 4a 3c bb ad ac bb 61 5c 4c 3c 8d 80 ff bc
       0.012360493 -0.0052697337 0.012473197 -0.031189227
0001a0 ec ef cc bc ff c4 9f 3c b1 d1 6d bb c7 a6 98 bc
       -0.025016747 0.019503115 -0.0036288316 -0.018634213
0001b0 78 10 f2 bb 44 42 7c 3c 9d 22 e7 bb 9d eb 4b 3c
       -0.007387217 0.015396658 -0.007053687 0.012446311
0001c0 8f dd 01 bd 59 dc d9 ba 4d 16 f8 bb 91 b5 be 3c
       -0.031705435 -0.0016621455 -0.007571018 0.023279937
0001d0 e0 c7 ce bc fc 15 db 3a eb c0 89 bb 14 48 eb 3c
       -0.025241792 0.0016714926 -0.004203906 0.028720893
0001e0 a3 d7 06 bc 13 4f 1d 3b bf 0b 26 bc 72 e7 59 bb
       -0.008230123 0.002400343 -0.010134636 -0.0033249524
0001f0 53 fd ee 39 54 70 ae 3c 8b 5a ff 3c 79 bc 8b 3b
       0.0004558364 0.021293797 0.031171104 0.004264411
000200 6f e0 c6 bc f8 29 fa bb c5 2f bd 3c 8a d1 b9 3c
       -0.02427694 -0.0076343976 0.023094067 0.022682924
000210 ec c1 07 3b 00 45 ea bb 40 b5 d2 3c af 6a 48 3b
       0.0020714952 -0.0071493387 0.025721192 0.0030581167
000220 ba bb 3d 3a 91 81 85 39 02 38 8f 3c 48 0c 5f 3c
       0.0007237751 0.0002546427 0.017482761 0.013613768
000230 94 f6 92 3c 6d 4d 75 bc fe 01 a6 bc 46 3f c9 3c
       0.017939843 -0.014972073 -0.020264622 0.024566304
000240 14 e4 21 3c cb 62 a7 3c e8 33 20 bc 87 09 aa 3c
       0.009881038 0.02043285 -0.009778 0.020756496
000250 b2 2f 04 bd 7d 10 b7 3c b4 8c ff 3b c4 1d 54 3c
       -0.03227205 0.02234673 0.0077987555 0.01294655
000260 10 17 0f b9 40 8c d7 3b 6c b4 2f 3c 58 42 1f bb
       -0.00013646134 0.0065779984 0.010724168 -0.0024301019
000270 e5 e1 63 bb 72 84 89 bb ca 47 1d 3d 80 59 78 3b
       -0.0034772095 -0.004196697 0.03839854 0.0037895143
000280 b7 c6 a0 3c 8e 38 a3 3c 87 7b 34 3d aa 9c 0a 3c
       0.019626005 0.019924428 0.044063117 0.008460203
000290 d6 7f c8 3c 87 7b 72 bc cd f6 cc bb de 35 80 bc
       0.02447502 -0.014799959 -0.006255007 -0.015650686
0002a0 b6 51 98 3c c7 ea ec ba 00 b1 05 bc af 6b 9b 3c
       0.01859365 -0.001807534 -0.008159876 0.018972246
0002b0 13 e9 fb 3c 48 80 60 3c aa 83 82 bc 3a 51 82 bc
       0.030750787 0.01370246 -0.015931923 -0.015907872
0002c0 49 3d cc bc 07 f9 0a bc 7d 56 30 bc 69 c8 c1 bc
       -0.024931567 -0.008482224 -0.010762808 -0.023655133
0002d0 92 1a 27 3c b6 39 a1 bc b4 c4 1c 3b d9 b0 9b bb
       0.010199206 -0.019680839 0.0023920955 -0.0047513065
0002e0 db 30 ae 3c be 29 d4 bb 94 27 c7 3c 8d 1c 99 bc
       0.02126353 -0.0064747026 0.024310865 -0.018690372
0002f0 5c d5 f5 ba 4b a7 e0 3b 1b 4b 6d bc bd dd 95 3c
       -0.0018755603 0.0068558804 -0.014483239 0.01829421
000300 ff 92 c2 bb dd 6c 88 3c 41 28 32 3c a6 fd 1e 3b
       -0.0059379335 0.016653473 0.010873855 0.0024260073
000310 4b a0 70 bc 50 02 ff 3b 69 40 b4 3c a6 32 00 bc
       -0.014686654 0.007782258 0.02200337 -0.0078245755
000320 08 b4 62 bc 6a b1 98 3b 8b e0 a1 bc 89 75 e6 bb
       -0.013836868 0.0046598213 -0.01976039 -0.0070330543
000330 fe 09 6d 3c f1 a9 9c 3b 43 ec 82 3b 75 0e a3 39
       0.014467714 0.004781001 0.0039954497 0.00031100554
000340 54 96 62 bc e6 09 de 3c 1a 4d 14 3c 26 88 66 3b
       -0.013829786 0.02710433 0.009051586 0.0035176366
000350 6c e9 ae bc 9b e9 78 bb d0 1b 7e bc a1 87 ec ba
       -0.021351539 -0.0037981037 -0.015509561 -0.0018045792
000360 39 01 c2 bc 23 5f 90 38 2b 1f 65 3c b7 b2 8b bc
       -0.023682224 6.884176e-05 0.013984482 -0.017052991
000370 f9 aa 44 bc 00 3a 09 bc e2 41 c0 3b ca c0 1e bc
       -0.012003654 -0.008375645 0.005867229 -0.009689519
000380 20 f0 c2 bc d9 f0 f1 bc 62 92 e7 3b 86 75 9b 3c
       -0.023796141 -0.02953379 0.0070670107 0.018976938
000390 b0 1c 6b bc ae 8d 10 3c ee a6 95 3c 70 64 ee 3b
       -0.014350101 0.008822842 0.018268075 0.0072751567
0003a0 24 a0 a8 bc 8c 7c 70 bc 44 e2 57 3c 8d 4e 42 3c
       -0.020584174 -0.014678132 0.0131765045 0.011859548
0003b0 19 d6 63 3c 9f 6e 59 bc 32 63 50 bc 7f 59 51 3c
       0.013906025 -0.013271003 -0.0127189625 0.012777685
0003c0 40 b7 c3 bc 47 37 94 3c 52 5b bb bc 4a 58 51 3b
       -0.023891091 0.018092765 -0.022870693 0.0031943494
0003d0 78 2c 1b bc ab 15 13 3d 56 11 55 bc 1e 06 ef bc
       -0.009471051 0.035909336 -0.0130046215 -0.029177722
0003e0 13 d2 05 bb 15 39 a6 3c aa 4b e6 bb 3a 58 f0 3b
       -0.0020419403 0.02029089 -0.007028063 0.007334736
0003f0 4b 27 c4 bc 73 aa 4e bc 69 eb 58 bc 14 bc 7a bc
       -0.023944518 -0.01261388 -0.01323972 -0.01530363

model_8/tf.__operators__.add/AddV2/y f4 [32]
000000 22 7e c2 bc 7f 74 cd bb ee d2 fa 3b b9 66 7d 3b
       -0.023741785 -0.006269991 0.0076545393 0.0038665964
000010 36 d6 be bc e1 75 db 3b 91 1b fc bb af 7b 1c bc
       -0.023295503 0.006697402 -0.007693716 -0.009550973
000020 2c 13 55 3c 65 63 c7 3c e9 4c aa bc 60 6c 44 3a
       0.013005059 0.024339387 -0.020788627 0.0007492956
000030 20 09 3e 3c 99 a1 9c bc 04 67 d0 3c 17 36 40 3c
       0.011598855 -0.019120025 0.025439747 0.011731646
000040 79 03 8c bc d3 3a 84 3c 51 d5 da bb 16 3c 6c 3c
       -0.0170915 0.01614133 -0.0066782613 0.0144186225
000050 53 35 b4 3c f0 d5 64 3c ca 74 26 3c 71 13 57 3b
       0.021998083 0.013967022 0.010159681 0.0032817984
000060 fc 9a 91 3c 32 41 c8 bb f1 2e 3b 3c d2 13 0b bc
       0.017774098 -0.0061112875 0.011424766 -0.008488612
000070 56 db 67 3c bc 19 66 bc f5 1c bb bb ed eb 22 bc
       0.014151415 -0.0140442215 -0.005710239 -0.009943944

model_8/tf.__operators__.add_1/AddV2/y f4 [32]
000000 e4 72 e7 bb 84 d4 9f 3d db 80 94 bd 3f d7 b2 3d
       -0.0070632566 0.07804206 -0.0725114 0.08732461
000010 99 b0 c3 ba e6 62 16 3d 5d a1 17 be cd a1 03 3e
       -0.001492995 0.03671541 -0.14807649 0.12854691
000020 10 cb e9 bd 0a 39 c4 bd 37 91 ae 3d 60 e7 23 3c
       -0.11415684 -0.09581192 0.08523791 0.010003895
000030 c7 90 7a bb fe c5 25 3e cf 19 be bd 9d 2f c7 3d
       -0.0038233267 0.1618881 -0.09282266 0.097258784
000040 87 1d e1 bb 8e 2e 41 3d 99 86 dd bd 16 50 7d 3c
       -0.006869975 0.04716354 -0.10816688 0.0154609885
000050 18 60 a8 3c a4 9d 8b bd 1b 94 e0 bd d9 de e7 3d
       0.020553634 -0.06817177 -0.10965749 0.11321802
000060 bc 22 14 3d 08 10 e7 3b 75 54 07 3e aa 84 d7 3b
       0.036165938 0.0070514716 0.13215812 0.006577094
000070 39 ef 23 3d fb fa 07 3e e6 3a 07 be da fa 01 3e
       0.040023062 0.13279335 -0.13206062 0.12693349

model_8/tf.math.add_2/Add/y f4 [1, 32]
000000 f8 be 43 bc 50 8e 10 bc f3 7c 89 bc d5 38 17 3c
       -0.011947386 -0.008822992 -0.016783213 0.009229858
000010 72 0f 96 bc 17 20 8e 3b 67 48 81 bc b3 85 a7 bc
       -0.018317912 0.0043373215 -0.015781594 -0.020449495
000020 81 96 12 3c ad 63 53 bc d3 11 44 bc df bc dd 3b
       0.008947016 -0.0129021825 -0.01196714 0.0067669
000030 01 de 26 3d 07 c4 27 bc 2d a5 93 39 16 f5 bd 3a
       0.040739063 -0.010239608 0.0002816109 0.0014492597
000040 e6 48 92 3c c8 2e 71 3c dc 46 93 3c 14 c7 27 bc
       0.017857026 0.014720626 0.017978124 -0.010240335
000050 99 8d 11 3d 36 50 59 bc f7 a9 35 bc e0 49 aa 3b
       0.03553543 -0.013263753 -0.011087886 0.005196795
000060 9f 4d 5e bc 26 de 9d bc eb eb 97 bc 07 6c 7a 3c
       -0.013568311 -0.019270968 -0.018545112 0.015284545
000070 e9 0a 13 3c 41 09 0d 3d ac 55 34 3b 20 d6 d0 3b
       0.008974769 0.034432653 0.0027516885 0.006373182

model_8/tf.math.add_5/Add/y f4 [1, 32]
000000 58 db d7 bb d0 33 b0 3d 5a 61 22 3b c1 88 1b 3c
       -0.006587427 0.086036325 0.0024777264 0.009493054
000010 95 37 9f 3e a9 99 8a 38 b2 82 19 39 37 ae 8f 3e
       0.31097093 6.608974e-05 0.00014639905 0.28062603
000020 17 96 a7 bb 1f 2f 03 3c 1e 3b 9f bb 61 97 1c bd
       -0.0051143277 0.00800684 -0.0048593422 -0.038230304
000030 85 91 e8 3b a2 de c5 bd c6 e4 b6 3c c3 48 86 3e
       0.0070974254 -0.096616045 0.022325885 0.26227388
000040 68 f8 2d 3d e5 42 0e 3d ff be 9d 3d ff c0 d1 bb
       0.042473227 0.034731764 0.07702445 -0.0064011808
000050 17 95 81 3e 31 67 da b9 54 33 57 3b 21 37 8f 3e
       0.2530906 -0.00041657084 0.003283699 0.27971748
000060 cd c2 7c 3e 6a cb 93 bb 68 f2 d4 bb c1 02 a2 3e
       0.24683686 -0.004510333 -0.0064986236 0.31642726
000070 22 ee 80 3e 89 a2 00 3d a8 97 e7 bb 7d 54 82 3e
       0.2518168 0.031405006 -0.0070676394 0.25455084

model_8/tf.math.multiply_10/Mul/y f4 [1, 32]
000000 00 bf 80 3f a1 7d 7d 3f 4f 70 7d 3f 6c e2 73 3f
       1.0058289 0.9901982 0.98999494 0.9526737
000010 d5 53 7d 3f 1e 77 7e 3f 3b e7 7d 3f f8 8c 7d 3f
       0.9895604 0.9940051 0.99180955 0.99043226
000020 ae a8 81 3f 94 59 7f 3f 58 33 81 3f bd 59 86 3f
       1.0129602 0.9974606 1.0093794 1.0496136
000030 29 fb 82 3f 31 13 77 3f 31 95 7c 3f 00 7b 7e 3f
       1.0232898 0.9651366 0.9866515 0.99406433
000040 63 93 83 3f e2 5e 81 3f 05 9d 85 3f 90 8c 85 3f
       1.0279354 1.0107081 1.0438544 1.0433521
000050 d5 08 83 3f 0c 81 7f 3f 02 63 7e 3f ed 65 7c 3f
       1.023707 0.99806285 0.99369824 0.98593026
000060 3f 99 7c 3f 11 e1 81 3f 86 23 7d 3f 4c ef 79 3f
       0.98671335 1.014681 0.9888233 0.97630763
000070 60 4b 7a 3f bf fc 81 3f 66 f4 81 3f 77 5a 80 3f
       0.97771263 1.0155257 1.015271 1.0027608

model_8/tf.math.multiply_22/Mul/y f4 [1, 32]
000000 16 ab 7d 3f c1 93 91 3f 4c e8 80 3f 16 56 81 3f
       0.9908918 1.1373216 1.0070891 1.0104396
000010 da d7 ad 3f 82 1d 80 3f 51 c5 7f 3f 64 d7 a6 3f
       1.3581498 1.0009005 0.99910456 1.3034482
000020 22 c1 7f 3f 38 78 80 3f 72 41 82 3f 48 71 73 3f
       0.9990407 1.0036688 1.0176222 0.9509473
000030 ff 76 82 3f 91 28 65 3f e2 0f 88 3f e7 e7 a1 3f
       1.0192565 0.89515024 1.0629847 1.2648896
000040 08 5b 87 3f 81 f6 83 3f 3d cb 8d 3f 02 fc 7e 3f
       1.0574656 1.0309602 1.1077648 0.99603283
000050 95 ae a0 3f d7 19 80 3f a6 8a 80 3f 72 62 a3 3f
       1.2553278 1.0007886 1.0042312 1.2764418
000060 25 75 9f 3f e0 90 7d 3f b5 30 80 3f ed f2 b2 3f
       1.2457625 0.99049187 1.0014864 1.3980385
000070 88 0b a0 3f 54 e7 87 3f 3f 46 7e 3f e9 d2 9f 3f
       1.2503519 1.0617471 0.9932594 1.248624
