backend/models/Hey_Groovy.onnx (onnx, 633208 bytes, 9 tensors)

layer1.weight f4 [96, 1536]
00000000: a83f 9f3a 9381 b83c 60b1 c63b ace9 f0ba
00000010: be71 50bc 60bd cf3c bb08 973c 0abf 4cbc
00000020: 1956 a43c 836f 2ebc d821 423c 6e94 5a3c
00000030: a8d9 d03b 702a af3c 9f99 d5bc fc5b c63c
00000040: a003 993c 8fcc b73c 5be6 8ebc ba97 88bc
00000050: af43 b5bb 73e4 a93b 3dc9 fa3b e439 b6bc
00000060: e499 353c f2d3 afbc 4483 9ebc 2fd5 403b
00000070: 4d6b 813c a7e4 a63b ab33 c43c 3c9f c33b
00000080: a830 c13c 3c78 293c b441 15bc 8a3b 4b3c
00000090: dd11 bc3c f492 4ebc 0150 cc3c c4d3 b6bc
000000a0: 1320 a3bc bcd0 233b 66e2 6abc 92b3 cf3c
000000b0: f927 9a3c 7118 f43b 5a18 95bc e199 203c
000000c0: 118f b93b a5c1 16bc e841 a2bc 9c16 1d3b
000000d0: 6612 e63b e7bf d6bc 4a94 d8bc 6969 b2bc
000000e0: d48d 793c ed20 8a3c 7e07 973b 755a 513c
000000f0: 9694 c7bb 0ee2 3cbc a0c1 553b 6b13 4d3c
00000100: 52dc ab3c ed2b 8fbc 1004 8ebb 8976 cbbc
00000110: 782c 43bc 79ea 833c 5c02 803c f172 acbc
00000120: 60b6 08bc 4f47 f0bb 6eb5 6cbc a884 8139
00000130: 9954 d73c a7f4 e53b b100 803c d687 4b3c
00000140: 3577 d3bb 954d 8bbc 5194 523c 72b1 57bc
00000150: 9628 41bc 1664 29bc a75b 953c 19ad 353c
00000160: eb40 cdbb f663 5c3c 07e8 a7ba 593f 763c
00000170: b5aa a2bc cf12 67bc acc9 d1bc 2169 38bc
00000180: 4870 3e3c 50de afbc fac6 e13b 045c a63c
00000190: deb2 5b3a 79c7 ab3c 53ef 04bc 09ca bd3c
000001a0: 0ffa 5c3c 700a 15bc 7af1 f83b 2550 7a3c
000001b0: 2f15 cd3b fbc4 a5bb b281 66bc 3781 e43c
000001c0: 46f5 a0bc 21e6 913c d1bc 04bc 5cad 22bc
000001d0: e30b 53bc e407 9dbc 7906 993c 45ea 503c
000001e0: 6ab4 86bc 6094 43bc 54ba 0db8 c122 f0bb
000001f0: 4114 26ba fa9d d5bc 7b50 173c d8ab 793c
00000200: a7e4 673c 98d5 91bc 2a39 343c f8cf 843c
00000210: 6aac 5a3c 9ae2 26bc db03 22bc 7303 a93c
00000220: c88a 12bc bb24 56bc 2ea1 8d3c 9db9 b4bc
00000230: 5c62 cabc 65ef c43a abf6 223c 496e 7d3c
00000240: de9c 4b3c 327f 13bb 35d0 b9bc 58b7 c7bc
00000250: 89ec 44bc d524 463b e1cb c63b df74 883c
00000260: f762 cf3c 626b 943c 5b14 b23c 7546 a53c
00000270: f3fc b0bc 8835 bfbb 578e c93c fb0b d53c
00000280: 2260 c53c fada 763b 4428 bf3b 2b9b 873c
00000290: 75ab b43b 2059 ca3c 3af2 cdba 956c a3bc
000002a0: 69f2 a2bc b725 dd3b c829 d03b 9f41 5ebc
000002b0: de56 80bc 5003 8d3b 21e7 103b 90f6 a83a
000002c0: 0011 a6bb 1de9 aabb 473d 2abb 58e3 48bb
000002d0: 6390 d83c 1aa4 983b 182d 043c 8525 b93c
000002e0: f6fe adbc b81d 03bc 26fd 683b 14f3 473c
000002f0: e3a3 a3bc 6c36 763b a764 8c3c 8366 33bb
00000300: d992 9c3c 402c 0b3c cd17 a43c 99c9 76bc
00000310: 8300 4b3b 40b6 88bb 733e c13c e941 1e3c
00000320: 21bc 5f3a 3565 04bc 1f46 c2bc 38e7 25bb
00000330: 8751 dd3c c3b8 ad3c ac6e a0bc 597f 863c
00000340: 8381 9d3a 0731 a7bb 6336 0a3b 8ad8 51bb
00000350: e50b a3bb 4661 653c 44bf 093c 66f9 79bb
00000360: e2ed a33c 05c4 673c 95ad 65bc 2e57 923c
00000370: e21e aabc 3add 8ebc 78d2 263c e11b 18bc
00000380: b90a bdbc 2abf 42bc 64ce 46bc eae8 9bbc
00000390: 1b61 9fbc 016f ebbb 9a5f 853c ef21 ab3c
000003a0: 037d eabb dc51 94bc 95ff beb9 634c 95bc
000003b0: d5e0 b73c aa54 1c3b e6b4 5c3c c102 5c3c
000003c0: b931 be3c 0865 033b 3756 0a3c e618 703c
000003d0: e1d9 c03b 8adb 153c 67fe 5e3b 1a9c ed3c
000003e0: 670c b03c 3117 043c f1c3 9dbc 3af5 2bbb
000003f0: f213 6e3c b59f e93c ebfa c6bc a6a9 363c
0.0012149708 0.022522723 0.006063625 -0.0018380187 -0.012722431 0.025358856 0.01843678 -0.012496719
0.020060586 -0.010646704 0.011848889 0.013341052 0.006373603 0.02138254 -0.026074229 0.024213783
0.018678486 0.022436408 -0.017443826 -0.016673911 -0.00553175 0.005184704 0.007653384 -0.022244401
0.011084054 -0.021463368 -0.019349702 0.0029423942 0.015798235 0.0050931755 0.023950418 0.00596991
0.023582771 0.0103436075 -0.009109903 0.012404332 0.022957737 -0.012608279 0.024940493 -0.022317775
-0.019912755 0.0024996242 -0.014336204 0.02535418 0.018817889 0.0074492027 -0.018200088 0.009802313
0.005662807 -0.009201442 -0.019806817 0.0023969775 0.0070212362 -0.026214553 -0.026437897 -0.02177878
0.015231568 0.016861403 0.0046090474 0.012777914 -0.006090711 -0.011528505 0.003261663 0.012516837
0.02097908 -0.017477 -0.0043339804 -0.024836795 -0.011912458 0.016103016 0.015626125 -0.021050902
-0.008344263 -0.0073327194 -0.014447553 0.00024703634 0.026285456 0.00701769 0.01562533 0.0124225225
-0.0064534196 -0.017004767 0.012852744 -0.013164865 -0.011789462 -0.010338804 0.01823218 0.011088633
-0.0062638423 0.013451567 -0.0012810238 0.015029752 -0.01985679 -0.014103605 -0.02560886 -0.011255533
0.01162345 -0.021468312 0.006890175 0.020307548 0.00083808403 0.02096914 -0.0081137 0.023167627
0.013487353 -0.009096727 0.0075971456 0.015277897 0.006258629 -0.0050588823 -0.014069008 0.027893646
-0.019648205 0.01780993 -0.008101658 -0.009929027 -0.012881252 -0.019168802 0.018679844 0.012751167
-0.01644345 -0.011937231 -3.379055e-05 -0.0073283617 -0.00063354155 -0.026076306 0.009235497 0.015238725
0.014153636 -0.017802045 0.010999957 0.016212448 0.013346771 -0.010185862 -0.0098886145 0.020631528
-0.008944221 -0.013070281 0.01728877 -0.022061164 -0.024705105 0.0015024958 0.009946506 0.015468189
0.012427537 -0.0022506234 -0.022682289 -0.024379417 -0.012019285 0.0030234356 0.0060667847 0.016657291
0.025315745 0.01811761 0.021738222 0.020175198 -0.02160499 -0.005835239 0.024604006 0.02600669
0.024093691 0.0037667141 0.0058336575 0.016553482 0.0055136033 0.024700701 -0.0015712448 -0.019949237
-0.01989098 0.0067488807 0.006352637 -0.01356545 -0.015666422 0.0043033734 0.002211042 0.0012890864
-0.0050679445 -0.0052157775 -0.0025976466 -0.0030653086 0.026436036 0.0046582343 0.008067392 0.022600899
-0.021239739 -0.008002691 0.003555128 0.01220395 -0.019975608 0.003756906 0.017137839 -0.0027374334
0.019112991 0.008494437 0.02003088 -0.015062713 0.0030975647 -0.0041721165 0.023589348 0.009659269
0.00085348083 -0.00808077 -0.023715077 -0.002531482 0.027016414 0.021206265 -0.019584022 0.016418146
0.0012016747 -0.00510228 0.0021089546 -0.0032019936 -0.004975783 0.014000243 0.008407418 -0.0038143038
0.020010892 0.014145856 -0.014018436 0.017863836 -0.02076668 -0.017439473 0.010182016 -0.009283991
-0.023076402 -0.011886397 -0.012134168 -0.01903196 -0.019455483 -0.0071848636 0.016280938 0.020890204
-0.007156016 -0.01810544 -0.00036430047 -0.0182249 0.022446075 0.0023854175 0.013470864 0.013428391
0.023217069 0.0020049233 0.008443407 0.014654374 0.005885348 0.0091465805 0.0034026147 0.0290051
0.021490289 0.00806217 -0.019258471 -0.0026238696 0.0145311225 0.028518537 -0.024289569 0.011148846

layer1.bias f4 [96]
00000000: 142e 89bc a9db 353c 3471 a93a 60e3 92bc
00000010: 1943 b93a 6c5f 67bc 3bc1 0bbc 3a15 3fbc
00000020: 32a7 c83b 9fb3 61bb 3f98 7cbc 5185 853c
00000030: 98b0 8f3c e965 a03c 77f5 63bc 9355 2f3b
00000040: 10d9 173c 4f41 543b 8d25 2f3c f71c 903c
00000050: f20b 2e3c 12b9 bb3c f60b 9bbc d9c5 99bc
00000060: 9aa9 463c 274f 9d3c e031 393c 4b21 f9bb
00000070: 694f 8ebc a540 cabb 452f 18bc adb5 b8bc
00000080: 34ab 503c 839a e33c 9b88 943a 773d ad3c
00000090: 1a8f 30bc 2456 c7bc ba24 cd3a d3ba 643c
000000a0: 4ea0 a43c d7ca 153c 4f02 b6bb 591d 87bb
000000b0: e0d6 cd3b b69e 883c 1545 a03c 8a7e 6bbc
000000c0: a279 feba 8a92 99bc 674f 94bc 9f17 b1bc
000000d0: 2e54 923c 867b e3bb cdc0 8b3c 237e db3b
000000e0: c5b8 9fbb dfd4 9a3b e5b7 e7ba d762 943c
000000f0: 4027 333c 4693 053c 9921 4e3c b787 af3c
00000100: 190e a1bc 8509 753c 3371 79bb 08d6 773c
00000110: a0cd a63a 928e 053c 33e5 45ba 0967 783c
00000120: 60b4 053b c4a5 1dbc 528b ffb9 d50a 763c
00000130: 0352 b7bc fc2f 96bc 5326 a93c bb90 d73b
00000140: 7dc4 413c 8e8a af3c ff1f 23b9 6ce5 7b3c
00000150: 9b78 a33c c396 c53b 0a71 c43b 80ba 853c
00000160: bf63 bd3c 6c36 2a3c 91dc 0d3c 1a6a 393b
00000170: 6ffc 98bc 5a66 ad3c 596a a53a 4605 c6bc
-0.016745605 0.011099734 0.0012927414 -0.017930686 0.0014134377 -0.014121871 -0.008529956 -0.011662776
0.006123447 -0.0034439338 -0.015417158 0.016298922 0.017540261 0.019579845 -0.013913504 0.0026753887
0.00926806 0.003238756 0.010690105 0.017591937 0.010622965 0.022915397 -0.018926602 -0.018771099
0.012125397 0.019202782 0.011303395 -0.007602846 -0.01737185 -0.006172257 -0.009288614 -0.022547567
0.0127361305 0.027783638 0.0011332216 0.021147473 -0.010776306 -0.024333067 0.0015651204 0.013960558
0.02009597 0.009142599 -0.0055544744 -0.0041233716 0.0062817186 0.016677242 0.01956419 -0.014373431
-0.0019414912 -0.018746633 -0.018104268 -0.021617709 0.017862406 -0.0069422154 0.017059708 0.0066983863
-0.004874321 0.0047250832 -0.0017678706 0.018113537 0.010934651 0.0081527885 0.0125812525 0.021427019
-0.019660043 0.014955883 -0.0038061857 0.015126713 0.0012726076 0.008151667 -0.0007549107 0.015161284
0.0020401701 -0.009622041 -0.00048741192 0.015017231 -0.022377973 -0.018333428 0.020648157 0.0065785325
0.011826632 0.021428373 -0.00015556811 0.015374523 0.01995497 0.006029935 0.0059949206 0.016324282
0.023118852 0.010388952 0.008658544 0.0028292001 -0.018675057 0.02116697 0.0012620195 -0.024172436

layernorm1.weight f4 [96]
00000000: e534 7f3f 0c32 883f d357 7e3f 7058 7f3f
00000010: 3e41 7e3f 41de 7c3f 8bb5 803f 72e5 803f
00000020: b5a5 7e3f 9ff1 803f 9d37 7f3f 8334 7f3f
00000030: 7581 803f cd24 7e3f 9273 7f3f 21c7 803f
00000040: ac6c 7f3f 2d24 7f3f b979 7f3f e44d 7f3f
00000050: d4dd 7c3f 405d 7d3f 9312 843f 51cc 793f
00000060: b839 7e3f d1ba 803f 1ec3 7f3f d892 7d3f
00000070: 48e2 7f3f 3f5a 803f 7874 813f 000b 803f
00000080: 0c3f 803f 7b1b 843f 9e7c 7f3f f8ec 7d3f
00000090: 3121 7f3f 48c6 803f ef36 7f3f 1d27 7f3f
000000a0: 10e6 7f3f 1a2e 7f3f fd74 863f 62a0 843f
000000b0: ca55 7e3f 6173 7c3f 787e 7f3f 770e 803f
000000c0: d9b9 7e3f 099e 7f3f fb13 7f3f fa11 7d3f
000000d0: cd43 7d3f 3bb2 7f3f a282 7f3f 9199 803f
000000e0: 5823 7e3f 55de 7e3f 8158 7f3f a831 7f3f
000000f0: 6d0b 823f 3972 7f3f ea24 7f3f 8de6 7d3f
00000100: 2676 7d3f ecad 7b3f afc0 7a3f 103a 7f3f
00000110: 45aa 7f3f ef9d 7f3f 30c6 833f c84c 7d3f
00000120: 86a8 7d3f f19e 7a3f 0e58 813f 4da0 7f3f
00000130: 8535 803f 71d1 7d3f df02 813f eb06 7f3f
00000140: 5b5e 7d3f 8be0 7f3f 6832 823f 4220 803f
00000150: 4915 7e3f df92 7e3f 2557 813f 02f6 813f
00000160: 2245 823f 405d 803f 23e5 7e3f e258 7e3f
00000170: bce7 7e3f 722f 7f3f da44 7e3f 63d3 7e3f
0.99690086 1.0640273 0.9935276 0.9974432 0.993183 0.9877663 1.0055403 1.0070021
0.994716 1.0073737 0.99694234 0.996895 1.0039507 0.99274904 0.9978572 1.0060769
0.99775195 0.99664575 0.9979511 0.99728227 0.9877598 0.98970413 1.0318168 0.9757739
0.9930682 1.0057012 0.999071 0.9905219 0.9995465 1.0027541 1.0113668 1.0003357
1.001924 1.0320886 0.99799526 0.9918971 0.9966002 1.0060511 0.99693197 0.9966906
0.9996042 0.9967972 1.0504452 1.0361445 0.99349654 0.98613554 0.9980235 1.0004414
0.9950233 0.9985052 0.9963986 0.98855555 0.9893158 0.99881333 0.99808705 1.0046865
0.9927268 0.99558 0.9974442 0.99685144 1.0159737 0.99783665 0.996657 0.9917992
0.99008405 0.9831226 0.9795026 0.9969797 0.99869186 0.9985036 1.0294857 0.98945284
0.9908527 0.97898775 1.0104997 0.99853975 1.0016333 0.9914771 1.0079001 0.9961993
0.989721 0.99952 1.0171633 1.0009844 0.9925123 0.9944286 1.0104719 1.0153201
1.0177348 1.0028458 0.99568385 0.99354374 0.9957235 0.9968177 0.9932381 0.995413

layernorm1.bias f4 [96]
00000000: cd05 acba 0507 0a3c 89da b63b 8eaa 9d3a
00000010: 2c98 903b 3227 f5bb e6d7 163c a1d2 11bb
00000020: 2ad6 38bc f99f 123a 10ab 8ebb d909 bcbb
00000030: 5a1d 383c 404f a7bb 8594 cbbb bf71 823b
00000040: 2d02 a5bb 9b4c 233b 6bf2 bebb bbe2 f4bb
00000050: dde2 81bb 0419 bfbb 151d 233c 9bee 843b
00000060: 629f 08bc b6ec b0bb 839a 233c 7b2d 233b
00000070: bee2 4f3b 9113 78bb aace 903a 5f91 18bb
00000080: 2df5 60bc f1a4 ed3b 923e 7dbb 6460 54bb
00000090: c0ff 20ba e94a 61bb 326f eebb a82f 3e3c
000000a0: 1cd4 05bb 9e0a 4fbb 4122 0e3c 4ec9 e03b
000000b0: 8d4c 9fba 9a5b 8939 f342 aabb bcd4 2fbb
000000c0: 1ee1 a7bb 04d4 9dbb 527c 8ebb 2bde 4939
000000d0: a7ae 16bc f28b 9cbb f3c2 a3bb e862 693b
000000e0: 62d7 a2bc d97b bc3a 3c90 0fbc 3247 63b9
000000f0: 5f21 ae3b d95b a4bb fe6e 153b 0c70 913b
00000100: 553d 7cbb a840 2fbb fc99 fa3b edd5 9fbb
00000110: a802 96bb 8930 313a 8434 fcb9 2e74 aa3b
00000120: 2003 59bb cba9 153c a0ed e63b 3362 b7bb
00000130: 41d4 6abb b911 09bc 52e6 3abb 4454 86bb
00000140: 6e04 cc38 2f41 e83b 9a40 d03b 6916 a8ba
00000150: f3ff 51bb 10de 26bc 5b2c b83b dac0 4b3b
00000160: 6ed5 7dbb cbf1 903b 41fa ecbb e88c d5ba
00000170: e45d a9bb 2c63 dfbb a207 b6bb c7f6 b0bb
-0.0013124287 0.008424525 0.0055802506 0.0012028979 0.0044126716 -0.007481479 0.009206748 -0.0022250789
-0.011281529 0.0005593296 -0.0043538883 -0.0057384786 0.011237467 -0.005105883 -0.0062127733 0.0039808447
-0.0050356598 0.0024917487 -0.0058272383 -0.0074733174 -0.003963812 -0.0058318395 0.009955664 0.0040567643
-0.008338781 -0.005399312 0.009985569 0.0024898935 0.0031720842 -0.003785346 0.0011047919 -0.0023280007
-0.013730329 0.0072523286 -0.003864203 -0.0032406086 -0.00061416253 -0.0034376925 -0.007276439 0.011608042
-0.0020420616 -0.0031592022 0.008675159 0.006859935 -0.0012153551 0.00026198925 -0.0051959693 -0.002682968
-0.0051232716 -0.004816534 -0.004348316 0.00019251618 -0.009196914 -0.004777425 -0.004997605 0.0035611931
-0.019878093 0.0014380171 -0.0087624155 -0.0002167493 0.0053140367 -0.005015832 0.0022801752 0.004438406
-0.0038488705 -0.002674142 0.007647751 -0.004877797 -0.0045779534 0.00067592465 -0.00048104313 0.005201838
-0.0033113435 0.00913472 0.00704737 -0.005596423 -0.003583208 -0.008366042 -0.002851863 -0.0040994007
9.728303e-05 0.0070878486 0.0063553574 -0.0012824062 -0.0032043427 -0.01018478 0.005620522 0.003109029
-0.003873195 0.004423355 -0.007231981 -0.0016292604 -0.0051686633 -0.006817242 -0.005555109 -0.005400512

blocks.0.fcn_layer.weight f4 [96, 96]
00000000: 37b1 04bd 3d03 a83d 4924 d23d 04b6 7fbd
00000010: 2539 8bbd 3795 dabc 38d1 b53d da26 d83d
00000020: 7010 dfbd 4090 063b b48e 543c c00a 393b
00000030: 0e06 193c 5bc4 953b 11c6 a13c b5ea cfbc
00000040: 9b0f 613d 9a6f 0ebd e9ac 543d 5679 043d
00000050: 071b b2bd d879 4d3d 14b9 a7bd 3a92 02bd
00000060: 32cf 0a3d 6ceb c63d a745 983d d8c9 cb3c
00000070: d2d2 923c f6e2 81bd caf1 763d 489f 8d3d
00000080: a666 6cbd 3fdd 37bd 2aff 123b bf3b 2a3d
00000090: 06a9 babd 2e2a 12bd 7ace 7a3d 6bf6 0ebd
000000a0: 2c91 903d d4b9 7cbd 4326 99bc 7f12 a2bd
000000b0: b50d 51bc 9be5 643d cb5c ac3b 178e 853d
000000c0: 231c 77bd 512a db3c 1703 b83c f5fa b0bd
000000d0: 7536 ba3c ce0c 0abc 7eb8 893d 8756 64bd
000000e0: 1548 6dbd dfe7 83bd 7740 a73d e1b0 783b
000000f0: c615 e6bd 9d15 c3bd fd60 983c 5ec7 a93d
00000100: 824a babc 37af 78bd ee6f 9a3d 7cd3 6e3d
00000110: f7ae c1bd be95 c53d 4175 9c3d 9b9d 1e3d
00000120: 88dd 68bc 3545 c03c e2f5 41bb fdde dc3c
00000130: 312a 1d3d 8463 e4bb 4d6e 6a3d 7b0f ecbc
00000140: 57ea 453b 5981 bcba f95b aebb a9b8 61bd
00000150: b7e0 56bb 6c3d 93bd bd33 89bc 885d b93c
00000160: ad61 893b 98c9 0dbd e41f a73d ffa7 70bd
00000170: f86a 43b9 a854 a7bc dd50 b33d 149e ae3d
00000180: f3fc 86bc 7de3 903b 9bc3 b4bd 0fcd 0b3c
00000190: 9d9b bb3d 2cf0 c53c 6a1f b03d 54bf d33d
000001a0: 6595 a3bd 6725 703d a924 3e3d 4261 6d3d
000001b0: 1f42 6dbd 4e97 af3c 2fe2 81bd 392d 30bd
000001c0: 8e02 cb3d a5a5 32bd c2ea 3e3d caa4 6bbc
000001d0: 887e 923d 1e5c 27bc 9c74 463c 23e3 9abd
000001e0: 7397 ba3a 807d f23c 9e80 9c3d 117f 1c3d
000001f0: f30c 89bd 4fe9 cd3d 97c3 e43b 46da 9c3c
00000200: 0776 abbd 28d6 0f3c a80a 55bc ed4f 9d3d
00000210: 7048 adbd c33b afbd 6d32 b7bd 56ff b9bd
00000220: 884d cb3d 855d 8d3d afec 313d 8eca 1f3d
00000230: 0994 b3bd 3459 b139 3d28 b6bc 2256 f1bc
00000240: b4ee 803d 6ec1 26bd a29a ccbd 7de2 2fbd
00000250: 1f22 1cbd 1c4a dd3c d6d3 773d 7c7f 3ebd
00000260: 9874 a83d a234 06bd f445 52bd 3723 6cba
00000270: ccb1 ddbc 7216 fa3c fdaa c9bd ab30 333d
00000280: c3d0 26bd 6f9f 25bc 12ea 99bd e141 013d
00000290: b58b 9f3d 8654 7c3d 7029 643d 586f 5ebd
000002a0: f97f 2bbd 1251 86bd fda3 c5bd 0265 e83c
000002b0: 450f 9abd 74dc abbd 3688 bbbb 42ac 953d
000002c0: 2f0e 643d ac1a 5c3d 4f19 a93d 1ac8 4abc
000002d0: 333f f9bc eefa 3b3d 4315 653b 9fb3 7c3d
000002e0: 438f 9b3d a4b9 c0bd f2d2 c33d 2f0c 1e3c
000002f0: 9e8e 8ebd 4697 4c3d 245c bdbd f067 ff3c
00000300: e464 203d 22ff 253d 0b35 003c f66f 3c3c
00000310: 38fe d0bc 7dea c23d 9ce4 aa3b 5061 d3bc
00000320: 44fe 233d 9a96 52ba a159 0cbd 9ac8 6b3d
00000330: 440a 1f3d 3d31 153d 8e89 8d3d c4bd c9bd
00000340: 9cd5 213d 7e20 933d abda ec3c 884d 6c3d
00000350: 4430 0fbc f2df b5bd b1c1 89bd 02d5 8fbd
00000360: b1f5 74bc ea70 113d 42b8 c0bd 4317 ca3d
00000370: b69e b3bd 55be c63d c64f 1d3d fac8 9cbd
00000380: 6c1c 2a3d 2d7f b03c 94f2 47bd 04bb 9d3d
00000390: 2588 24bd aa08 bdbc 8c3c a6bd d7ef 0539
000003a0: fbc6 21bd 7e8c 963d e67d 89bc 3a44 3d3b
000003b0: f74b 85bd 55e9 a4bd 19b5 f73c eefd a73d
000003c0: 1d8b 93bd 2a62 723d cfd2 94bd d2fb 523c
000003d0: 0d8d 3a3c a254 97bb 99bd aebd 9e7f 96bd
000003e0: 0a09 e53c 308e 683d 470e c5bd 5ed2 1fbc
000003f0: c784 6c3d ebc9 723d 5c97 323b 3c61 26bd
-0.032395568 0.08203743 0.10260827 -0.062429443 -0.06798009 -0.02668248 0.08877796 0.10554285
-0.10891807 0.0020532757 0.012973476 0.0028235167 0.009339822 0.0045705265 0.019747766 -0.025380472
0.054946523 -0.0347744 0.051922712 0.032342277 -0.08696561 0.050165027 -0.08189598 -0.031877734
0.033889003 0.09712872 0.0743516 0.02487652 0.017922793 -0.063421175 0.06028918 0.06915146
-0.05771508 -0.04488873 0.0022429922 0.041560885 -0.0911427 -0.035684757 0.061232068 -0.03490297
0.07058939 -0.061700657 -0.018695002 -0.07913684 -0.012759616 0.05588303 0.005260085 0.06521242
-0.060329568 0.026753576 0.02246241 -0.08641616 0.022731045 -0.008425904 0.06724642 -0.05574658
-0.05793007 -0.0644071 0.081665926 0.0037947225 -0.11234622 -0.09525607 0.018600935 0.082899794
-0.022740606 -0.060713973 0.0754088 0.058307156 -0.094572 0.09647702 0.07639552 0.038724523
-0.014212973 0.0234705 -0.002959602 0.026961798 0.038370315 -0.006969871 0.057234097 -0.028815975
0.0030199492 -0.001438181 -0.0053210226 -0.055107746 -0.003278775 -0.0718945 -0.016748304 0.022627607
0.004192552 -0.034616083 0.081603795 -0.058753964 -0.00018636498 -0.02042611 0.08755658 0.08526245
-0.016478037 0.00442165 -0.08826371 0.0085327765 0.0916054 0.024162374 0.08599742 0.10339227
-0.07987479 0.05862942 0.04642168 0.05795408 -0.057924386 0.021434452 -0.06341969 -0.043011878
0.09912597 -0.043615002 0.0466106 -0.0143825505 0.0715304 -0.010214834 0.012112763 -0.07562854
0.0014235809 0.029600859 0.07641719 0.038207117 -0.06691923 0.10054266 0.006981324 0.01914705
-0.08372121 0.008779086 -0.013003029 0.0768126 -0.08461082 -0.085563205 -0.08945165 -0.090819046
0.09926897 0.06902603 0.04343861 0.03901153 -0.0876847 0.00033826532 -0.022235984 -0.029460017
0.06295529 -0.040711813 -0.09990431 -0.042940605 -0.038118478 0.027012877 0.060504757 -0.046508297
0.082253635 -0.03276504 -0.051336244 -0.0009007933 -0.02706232 0.03052828 -0.098470666 0.043747585
-0.040726434 -0.010108813 -0.075153485 0.031556968 0.07790319 0.061604045 0.05570358 -0.054305404
-0.04187009 -0.06558432 -0.09650419 0.028368477 -0.07522444 -0.083916575 -0.0057230247 0.07308246
0.05567759 0.053736374 0.0825678 -0.0123768095 -0.030425644 0.045893602 0.00349553 0.061694738
0.075956844 -0.09410408 0.09561719 0.0096464595 -0.06960796 0.049948953 -0.0924609 0.031177491
0.039158717 0.040526517 0.007825146 0.011501303 -0.025511846 0.09517381 0.0052152406 -0.025803238
0.04003741 -0.00080333056 -0.034265164 0.057564355 0.03882815 0.03642391 0.06911002 -0.09850648
0.039510354 0.07183932 0.028912863 0.057691127 -0.008739535 -0.08880605 -0.06726397 -0.0702305
-0.0149511555 0.035508074 -0.094101444 0.09867718 -0.08770506 0.09704272 0.038406156 -0.07655521
0.04153101 0.021545017 -0.048815325 0.07701686 -0.0401689 -0.02307542 -0.08117017 0.00012773216
-0.039496403 0.073510155 -0.016783666 0.0028879778 -0.0650863 -0.08052317 0.030237721 0.0820273
-0.07204268 0.059175648 -0.07266771 0.012877421 0.011386168 -0.0046182433 -0.08532257 -0.0734856
0.027958412 0.056776226 -0.09621864 -0.009754745 0.057743814 0.059274595 0.0027250862 -0.040620074

blocks.0.fcn_layer.bias f4 [96]
00000000: 9204 813d 4565 3ebc 6f3b a83c 4354 c03c
00000010: 91cb 68bd e69a 82bc b445 ecba 336b 8e3d
00000020: 6a5d 32bd c916 383d 8041 453d e2d4 4a3d
00000030: 7efe c7bd eeb8 07bc bb0c b5bd dcd7 04bc
00000040: 01da a93c e73d 89bd 7e43 433c 3309 273d
00000050: e6ad 843d d7d0 a53d 7f48 1b3d e6d2 bc3d
00000060: 8a08 353d 6582 563d b711 44bd 3f54 7b3d
00000070: 29d7 fd3c 90b6 50bd 56ac a6bd 6b8b 703d
00000080: 5799 033d 3fe6 b9bd 9789 7abd 8edc 2dbc
00000090: 9442 75bb 458b 963a 0683 ba3d a4c6 2a3d
000000a0: a6a3 34bd cf6e b7bc 482d 0dbd 92e2 5abd
000000b0: 43b0 b53d 8c70 82bb e6dc 183d 33a1 9f3d
000000c0: 55ed bd3d ba46 f13b a7b1 8cbd 3e81 2b3d
000000d0: 9460 ea3c adcb 353d a8eb 923d aaae 303d
000000e0: dc4f 6ebd bf65 0ebd e882 853d 29e3 8ebd
000000f0: 6a70 443d aa17 2ebd 7b7f ab3d a6ba 41bd
00000100: 6583 a2bd 674b 9f3b 823f 0a3d 978d dc3c
00000110: d2ce e13b fef2 963d 7647 dab9 4ff2 b03d
00000120: d165 093d 740f 3d3d 4198 21bd 05f2 f2bb
00000130: a004 a13b e221 f1bc 932c 94bd 5c74 083d
00000140: ac04 4ebd 03d7 8dbd ae1e 7cbd 7492 653d
00000150: 30ea 973d 1bbb 1c3c 67c7 a23d ad43 13bd
00000160: 7f87 4abc 5e5a e23d b6fc 1dbc b379 8bbd
00000170: c99c a4bd cedb acbd 9a46 243d 0e0a c73b
0.062997 -0.011620824 0.020536153 0.02347768 -0.05683476 -0.015943002 -0.0018026144 0.069540404
-0.043546118 0.044943605 0.04815817 0.049519427 -0.097653374 -0.008283837 -0.08840319 -0.0081081055
0.020733835 -0.0670126 0.011917947 0.040780257 0.06478481 0.08096474 0.037910935 0.09219913
0.044197597 0.052370448 -0.047868457 0.06135964 0.030986385 -0.050955355 -0.08138339 0.05872671
0.03212866 -0.09077119 -0.061166372 -0.010611666 -0.0037423717 0.0011485597 0.09107022 0.041693345
-0.04410138 -0.022391705 -0.03446701 -0.05343873 0.0887151 -0.003980702 0.03732004 0.07794418
0.09273783 0.0073631676 -0.06869822 0.0418713 0.028610505 0.044383693 0.07173854 0.043135323
-0.05818163 -0.034765 0.06519109 -0.06976921 0.04795877 -0.042503037 0.08373924 -0.047297142
-0.07935218 0.0048612836 0.033751972 0.026922984 0.00689111 0.07370566 -0.00041633443 0.08639967
0.033544365 0.046157315 -0.03945184 -0.007414105 0.0049138814 -0.029435102 -0.07235064 0.033314094
-0.050297424 -0.06925776 -0.061552696 0.05604787 0.074177146 0.009566094 0.07948189 -0.035953213
-0.012361406 0.110523924 -0.0096427705 -0.06810322 -0.08037717 -0.08440362 0.040106393 0.0060741967

blocks.0.layer_norm.weight f4 [96]
00000000: 4d59 863f 4abb 823f 1882 833f 9efa 853f
00000010: f623 833f 5a57 803f c589 863f a687 803f
00000020: d5ed 813f b415 813f 0325 803f 6294 8e3f
00000030: 0cc7 803f 4a9b 803f e6b0 813f e8a4 8e3f
00000040: 995a 923f e3c6 7f3f 1efe 8f3f b143 813f
00000050: 5516 893f 977d 8f3f e484 883f 73e8 8a3f
00000060: 7510 8d3f baf7 823f 392b 813f 942d 813f
00000070: e875 7f3f c127 813f 9f09 803f 9b9e 8e3f
00000080: 58f1 7f3f a227 8b3f 6d52 803f 222c 8b3f
00000090: 105c 833f e2a8 803f b3f5 843f cf9c 8a3f
000000a0: 1f9d 803f a16a 813f 649c 743f ff69 963f
000000b0: 3f37 883f 6637 803f b3bf 8b3f 5e54 813f
000000c0: 74c9 813f 586a 813f 0567 713f a375 8d3f
000000d0: c644 8c3f 73fb 8b3f 8f0a 803f 02a9 8c3f
000000e0: 17e9 943f 1777 8d3f ea62 823f b200 803f
000000f0: d834 853f fdd4 8f3f b3c0 943f 9724 833f
00000100: e30e 803f 8620 803f 24a4 7d3f 5f02 813f
00000110: dac5 8e3f 07e1 913f 86ad 863f 7a30 823f
00000120: 8a75 7f3f 0305 833f c7fb 7d3f ce84 803f
00000130: 7a61 8d3f f05c 813f 13f9 823f af87 8c3f
00000140: b785 8e3f 58f4 7f3f fc56 803f 5e69 803f
00000150: 84c9 813f ee92 973f 5a03 903f 85e6 883f
00000160: d334 823f 47ff 843f 11a2 803f 3802 873f
00000170: 4d4f 983f 0491 863f d237 823f be0b 843f
1.0496002 1.0213406 1.0274076 1.0467107 1.024535 1.0026658 1.0510794 1.0041397
1.0150706 1.0084748 1.0011295 1.1139033 1.0060744 1.004739 1.013211 1.1144075
1.1433898 0.9991285 1.1249425 1.0098783 1.070994 1.1210202 1.0665555 1.0852188
1.1020647 1.023185 1.0091316 1.0092034 0.99789286 1.0090257 1.0002936 1.1142153
0.99977636 1.087147 1.0025154 1.0872843 1.026247 1.0051539 1.0387481 1.0829104
1.004795 1.0110666 0.95551133 1.1751097 1.064186 1.0016906 1.0917877 1.0103872
1.0139604 1.0110579 0.9429782 1.1051525 1.0958488 1.0936111 1.0003222 1.0989077
1.1633633 1.1051968 1.0186436 1.0000212 1.0406752 1.1236874 1.1621307 1.0245541
1.0004543 1.0009925 0.99078584 1.0078849 1.115413 1.1396798 1.0521705 1.0171044
0.99788725 1.0235904 0.99212307 1.0040529 1.1045372 1.0106487 1.0232261 1.0978907
1.1134557 0.99982214 1.0026546 1.0032156 1.0139623 1.1841714 1.1251023 1.0695349
1.0172371 1.0390404 1.0049459 1.0547552 1.1899201 1.0513005 1.0173285 1.0316083

blocks.0.layer_norm.bias f4 [96]
00000000: 261f ac3c 8aab e63b dd92 ad3c e30d a13c
00000010: 90d3 983c 97dd 8b3b f410 123d d1f1 903b
00000020: 413c 123b 7889 313c 7a0b 023c f86b ec3d
00000030: 181a 893b ecd2 593c cfab 323b 290d e03d
00000040: 82c0 f13d 8496 9bbb 33ab df3d 1259 eb3b
00000050: dd54 c43c e0fb e53d 2a9f fa3c 27be d23d
00000060: 5538 cc3d 19cb 163c 7809 493c 0a12 7a3b
00000070: 04bd 4ebb 0d04 18bb 4a3e ac3a a208 d93d
00000080: a616 64bb a10a 1b3d 6155 0a3c 579d bf3d
00000090: b4ae 783c ffee df3b 2af5 823c c94a c63d
000000a0: cf11 ea3b b63b d03a f9ac a6bc f5cb 073e
000000b0: 2d8b 803d 0d3e 243b 545a bd3d 722e b43b
000000c0: 6ff4 463c 1d0d 2f3c 0711 3fbd d5c5 cd3d
000000d0: 1c15 c63d 02b2 263d 3f7b 14bc 5c52 dc3d
000000e0: fdf7 003e c675 d23d cc29 813c 93f2 89bb
000000f0: aef3 893c 191d e33d 8ffd fe3d 4ad1 2d3c
00000100: 2fdf 9fba 59f9 363c 825b 6abc 1047 033b
00000110: 03be d63d ba0c eb3d f3f0 c83c 9982 af3a
00000120: f1bd d5bb a018 cc3c 4451 b8bb 4d1c 8c3b
00000130: 232d d53d f571 6a3c 1c1b 213c 351d c73d
00000140: db78 d53d f3f6 023b 2396 e03a 309a 33ba
00000150: 5372 473c ae97 093e b26c e63d 9543 f03c
00000160: 7056 8a3b 355b 373c 2b21 043c 6691 de3c
00000170: 7ec5 163e 499b ee3c 1b99 7f3c 435f 943c
0.021010946 0.007039492 0.021188194 0.019659942 0.018655568 0.004268359 0.0356607 0.004423358
0.0022313746 0.010835998 0.007937307 0.11544031 0.004184019 0.013294917 0.002726305 0.1094001
0.11804296 -0.0047481675 0.109213255 0.007182249 0.023966247 0.11229682 0.030593473 0.10290175
0.09971682 0.009203696 0.012270324 0.0038157725 -0.0031545768 -0.0023195774 0.0013141122 0.1059735
-0.0034803539 0.037851933 0.0084432075 0.09356182 0.015178371 0.0068339105 0.015986044 0.09682233
0.007143236 0.0015886936 -0.020346152 0.13261397 0.06276546 0.00250614 0.09245744 0.005498701
0.012143238 0.010684279 -0.046647098 0.10047499 0.09671995 0.040697105 -0.009062587 0.10757896
0.125946 0.1027637 0.015767 -0.0042098253 0.016839828 0.11089534 0.12450706 0.01060898
-0.0012197251 0.011167848 -0.014304044 0.002003137 0.104854606 0.11477037 0.024528956 0.0013390362
-0.006522887 0.024914086 -0.005624922 0.0042758347 0.10409 0.014309396 0.009833124 0.09722368
0.10423442 0.001998362 0.0017134588 -0.0006851284 0.012173253 0.13436767 0.11251201 0.0293291
0.00422173 0.011191179 0.0080645485 0.02716894 0.14723775 0.02912678 0.015600468 0.01811183

last_layer.weight f4 [1, 96]
00000000: cd14 083e c760 aa3d 2443 523d 2743 8d3d
00000010: 2975 9b3c bbf9 8abc 5ea0 9a3d 2c30 523d
00000020: 4d39 943d 56ee 48bc 5c6b cf3a 6ccc c1bd
00000030: ccf1 8c3d 7ce3 a03c bc1f 2c3d adc5 2ebe
00000040: 7c00 1fbe 647d 5fbc eb24 0fbe 0d2f 023d
00000050: f85a 183d dae1 10be eada b33d 2d64 bcbd
00000060: 2ecd 16be fb32 f93d 6dfd 393d 46fc e83c
00000070: 083d c53d d10f babd be3e 8e3c 8333 0bbe
00000080: 1674 0cbd e488 3d3e 9e53 9d3d 6cb1 26be
00000090: 4e3c a53d 20d6 c93c f7c0 093d 2234 01be
000000a0: bc62 bcbb 3469 c23d b1a0 a8bc e53e 20be
000000b0: b16f 013d 21b1 1cbc a46f 25be 9f0d 693d
000000c0: de6a ab3d 5788 ef3c d435 d0bc a6ef 09be
000000d0: 966a 3ebe 04d4 093e 76a3 123d 5368 cbbd
000000e0: dd69 1abe c105 21be 0b88 e33d 9340 773d
000000f0: db3f 0b3e 2cf4 02be 019a 09be 9fd1 a83d
00000100: 7c6f a73c aea5 b1bd 031e 6f3d b50d 893d
00000110: cfcc 11be 8de1 05be 94d8 033d 8551 bd3d
00000120: 87ab 223d 0130 3b3d e3ab 433b 22d4 093d
00000130: f013 00be 2053 6d3d acaf a13d a381 2cbe
00000140: 63b7 0cbe 79fb a33d 399e 403c 9f2f 1e3c
00000150: 15b2 ca3c 96c7 0ebe 456e 15be 59a6 053e
00000160: d873 e03d 4b40 eb3d 1e64 be3c b96f 153e
00000170: 0ce9 22be 08cd 973d d8f9 013d 7211 c93c
0.13289185 0.0831924 0.05133356 0.06897574 0.018976765 -0.016964784 0.07550119 0.05131547
0.07237492 -0.012263855 0.0015824842 -0.094628185 0.068820566 0.019639723 0.04202245 -0.17067595
-0.15527529 -0.013640735 -0.13978927 0.031783152 0.03719613 -0.14148656 0.08781989 -0.091987945
-0.14726707 0.12167927 0.0454077 0.028440606 0.096307814 -0.09085048 0.017363902 -0.13593869
-0.034290396 0.18509251 0.07681964 -0.16278619 0.08068143 0.024638236 0.03363129 -0.12617543
-0.0057490747 0.09492722 -0.020584436 -0.15648992 0.031600658 -0.009563715 -0.16155869 0.056897756
0.08369993 0.029239817 -0.025416292 -0.13470325 -0.18595347 0.13459784 0.03580042 -0.09932008
-0.15079446 -0.15724851 0.111099325 0.060364317 0.13598578 -0.12788457 -0.13437654 0.08243107
0.020438902 -0.08674179 0.05837823 0.066920675 -0.14238285 -0.13074322 0.032188967 0.09244064
0.039714362 0.045700077 0.002985709 0.03364957 -0.12507606 0.057940602 0.07894835 -0.16846327
-0.13741831 0.08006949 0.011756473 0.009654908 0.02474312 -0.13943323 -0.14592846 0.13051738
0.109595954 0.11486872 0.023241099 0.145934 -0.15909213 0.074121535 0.03173241 0.024544451
